…
num_total_subtrees=604 num_featurized_subtrees=604 num_new_datapoints=604
head
  query=3.496 feat=40.0 cost=414.401
  query=3.496 feat=31.0 cost=414.401
  query=3.496 feat=23.0 cost=414.401
tail
  query=4.697 feat=5.0 cost=2527.748
  query=4.697 feat=5.0 cost=2527.748
  query=4.697 feat=15.0 cost=2527.748
costs stats mean 6.549916837275554 std 1.5770743634262925
num_train=543 num_validation=61
iter 0 lr 0.001
Previous already execute 100 iters
Loaded value network checkpoint at iter 0
number of model parameters: 757025 (~= 2.9MB)
BalsaModel(
  (model): TreeConvolution(
    (query_mlp): Sequential(
      (0): Linear(in_features=40, out_features=128, bias=True)
      (1): LayerNorm((128,), eps=1e-05, elementwise_affine=True)
      (2): LeakyReLU(negative_slope=0.01)
      (3): Linear(in_features=128, out_features=64, bias=True)
      (4): LayerNorm((64,), eps=1e-05, elementwise_affine=True)
      (5): LeakyReLU(negative_slope=0.01)
      (6): Linear(in_features=64, out_features=32, bias=True)
    )
    (conv): Sequential(
      (0): TreeConv1d(
        (weights): Conv1d(155, 512, kernel_size=(3,), stride=(3,))
      )
      (1): TreeStandardize()
      (2): TreeAct(
        (activation): LeakyReLU(negative_slope=0.01)
      )
      (3): TreeConv1d(
        (weights): Conv1d(512, 256, kernel_size=(3,), stride=(3,))
      )
      (4): TreeStandardize()
      (5): TreeAct(
        (activation): LeakyReLU(negative_slope=0.01)
      )
      (6): TreeConv1d(
        (weights): Conv1d(256, 128, kernel_size=(3,), stride=(3,))
      )
      (7): TreeStandardize()
      (8): TreeAct(
        (activation): LeakyReLU(negative_slope=0.01)
      )
      (9): TreeMaxPool()
    )
    (out_mlp): Sequential(
      (0): Linear(in_features=128, out_features=64, bias=True)
      (1): LayerNorm((64,), eps=1e-05, elementwise_affine=True)
      (2): LeakyReLU(negative_slope=0.01)
      (3): Linear(in_features=64, out_features=32, bias=True)
      (4): LayerNorm((32,), eps=1e-05, elementwise_affine=True)
      (5): LeakyReLU(negative_slope=0.01)
      (6): Linear(in_features=32, out_features=1, bias=True)
    )
  )
)
InitializeModel curr_value_iter=0
iter 0 lr 0.001
Previous already execute 100 iters
Loaded value network checkpoint at iter 0
CP Assist LQO:  False
CP Assist LQO:  False
CP Assist LQO:  False
CP Assist LQO:  False
CP Assist LQO:  False
---------------------------------------
Planning took 12108.2ms
[Test set] q10b, predicted time: 1669.4
q10b,(predicted 1669.4),/*+ NestLoop(ci rt t chn mc cn ct)
…
